model_dir/checkpoint.pt (torch_old, 292964 bytes, 66 tensors)

fc1.weight f4 [64, 24]
0	0x3e24eb32	0.16105345
1	0xbcb40d92	-0.021979127
2	0xbe021226	-0.12702236
3	0x3d37ae91	0.044844214
4	0xbe6281e8	-0.22119868
5	0x3d937227	0.07199507
6	0xbe048cfc	-0.12944406
7	0x3d589a58	0.05288157
8	0x3ddc1d82	0.10747816
9	0x3d16eb85	0.036845703
10	0x3d1e869d	0.038702596
11	0xbd37dab3	-0.044886302
12	0x3d53450d	0.051579524
13	0xbe0ba289	-0.13636221
14	0xbd065505	-0.032795925
15	0xbd962f8b	-0.07333287
16	0x3e202a93	0.15641241
17	0x3d243919	0.040093515
18	0x3e3869d7	0.18009125
19	0x3b9409a0	0.004517749
20	0xbdd1c094	-0.102418095
21	0xbe3423bb	-0.17591755
22	0xbd055f6c	-0.032561705
23	0xbe169478	-0.14705074
24	0x3b015a23	0.0019737564
25	0x3e0e91a5	0.13922746
26	0x3db78120	0.089601755
27	0x3d588e85	0.052870292
28	0xbe242c93	-0.16032629
29	0x3d7b85d2	0.061406918
30	0x3ccc546f	0.024942605
31	0x3e0acc22	0.13554433
32	0x3e7394c5	0.2378722
33	0xbd675c80	-0.0564847
34	0xbe2052c5	-0.15656574
35	0xbe299c3e	-0.16563508
36	0x3e5fdb1a	0.21860924
37	0xbdc9049f	-0.098153345
38	0x3dffbdf1	0.124874
39	0xbe25ed5d	-0.16203828
40	0x3e9cf105	0.30652633
41	0x3c70040a	0.0146494005
42	0x3dd96b69	0.1061619
43	0xbdd7597f	-0.10515117
44	0xbd784384	-0.060611263
45	0x3b593d78	0.003314821
46	0xbe1efedd	-0.1552691
47	0xbd42b37b	-0.047534447
48	0xbdab0b8e	-0.08351813
49	0xbe7647ac	-0.24050778
50	0xbe41b007	-0.18914805
51	0xbe36faaf	-0.17869066
52	0x3d407bfd	0.046993244
53	0xbb93298f	-0.004491038
54	0x3e57764f	0.21041225
55	0x3da8759d	0.08225558
56	0x3d346248	0.04403904
57	0xbe90e2c2	-0.28298002
58	0x3e55597d	0.20834918
59	0x3d302f2c	0.043013737
60	0xbe476d04	-0.1947518
61	0x3e222d2e	0.15837547
62	0x3e54f5f1	0.20796944
63	0x3e248e3b	0.16069882
64	0xbe27718b	-0.16351907
65	0xbe97f085	-0.2967569
66	0x3da4a52f	0.08039319
67	0x3d866238	0.065617025
68	0xbe4800dd	-0.1953158
69	0xbd43f48b	-0.047840636
70	0x3e4814d4	0.19539195
71	0xbc45a0d3	-0.012062269
72	0x3efe43c2	0.4966107
73	0xbf06f30a	-0.527146
74	0x3e5d2a74	0.21598226
75	0x3df9501c	0.12173483
76	0xbdd5f665	-0.10447387
77	0xbc1d937f	-0.009617685
78	0xbd242db7	-0.04008266
79	0x3e37e824	0.17959648
80	0x3e1feca5	0.15617616
81	0xbf6338fb	-0.8875882
82	0x3e08942e	0.13337776
83	0x3e0039db	0.1252207
84	0x3d3725b3	0.044713687
85	0x3c9d5e2f	0.01920995
86	0xbd77cd67	-0.06049862
87	0x3e9dfb95	0.30856004
88	0x3d303d85	0.04302742
89	0xbe97d302	-0.29653174
90	0x3e28bd02	0.16478351
91	0x3ead1e2a	0.33812076
92	0x3ec60e2f	0.38682696
93	0x3f06ee68	0.5270753
94	0xbd19a673	-0.037512254
95	0x3ec9e692	0.39433724
96	0x3e3831f7	0.1798781
97	0xbafe6b8d	-0.0019410715
98	0x3c57cb44	0.013171021
99	0xbdd183ba	-0.10230203
100	0x3e6c00d9	0.23047198
101	0xbdd868ee	-0.10566889
102	0x3e5c3ecf	0.21508335
103	0x3d4419a8	0.04787603
104	0xba2ac605	-0.00065144926
105	0xbebea512	-0.37235314
106	0x3e170405	0.14747627
107	0xbd089a58	-0.03335032
108	0x3e24096a	0.16019216
109	0xbc6a94bd	-0.0143176885
110	0x3c8cd3c1	0.017190816
111	0x3dde2202	0.1084633
112	0x3db426f7	0.087964945
113	0xbf2def51	-0.6794329
114	0xbcdf837c	-0.027284376
115	0x3e8d5236	0.27601784
116	0x3efac372	0.48977238
117	0x3e47e074	0.19519216
118	0xbe4d58d8	-0.20053422
119	0xbcbee3b7	-0.023301942
120	0xbbd05eb6	-0.0063589467
121	0x3da55339	0.08072514
122	0x3e292cb9	0.16520967
123	0xbdb8a70a	-0.09016235
124	0x3e1b48ab	0.1516444
125	0xbe4147b2	-0.18875006
126	0xbe6bad9b	-0.23015444
127	0xbb96f2ed	-0.0046065957
128	0x3e923d07	0.28562185
129	0x3e82d94b	0.25556406
130	0xbe13f0c0	-0.14447308
131	0x3db16e05	0.08663563
132	0x3e5faa72	0.21842363
133	0x3d4a6765	0.04941501
134	0x3de0474f	0.10951101
135	0x3e3fe4aa	0.18739572
136	0x3e9d4ad0	0.3072114
137	0x3ddc74e5	0.10764483
138	0x3b5efb6f	0.0034024378
139	0xbe27e79b	-0.16396944
140	0xbd5d7edd	-0.054076064
141	0xbdcde218	-0.100528896
142	0x3c92608f	0.017868308
143	0x3da83149	0.082125254
144	0x3ec5bae5	0.38619152
145	0xbe23c653	-0.15993623
146	0x3d6c60e4	0.05770959
147	0xbd0a2794	-0.03372915
148	0x3e082ec2	0.13299087
149	0xbe4f6b97	-0.20255886
150	0xbdb80e2f	-0.0898708
151	0x3dcc422d	0.099735595
152	0x3ebb887a	0.3662756
153	0xbc9e68a6	-0.01933701
154	0xbe3df1e2	-0.18549302
155	0xbe4b2ba8	-0.19840872
156	0xbce81305	-0.028329382
157	0xbed120f8	-0.40845466
158	0x3e1bf500	0.15230179
159	0xbe08f1d6	-0.13373503
160	0xbeeb2d85	-0.45933166
161	0xbf0f697e	-0.56020343
162	0x3d33a939	0.043862555
163	0x3e13dbc8	0.14439309
164	0xbc5810e6	-0.013187623
165	0x3f11a450	0.56891346
166	0xbdc43490	-0.09580338
167	0xbd09f1b0	-0.033677757
168	0x3db3a650	0.08771956
169	0xbe0f13f3	-0.13972454
170	0xbddf21c2	-0.10895111
171	0xbc4f745d	-0.0126620205
172	0x3d920166	0.07129173
173	0xbdddea13	-0.10835662
174	0x3e211376	0.1573008
175	0x3dcabc77	0.09899228
176	0x3ecb7f7c	0.397457
177	0xbd0e700c	-0.034774825
178	0xbd97d93e	-0.074144825
179	0xbbce49bd	-0.0062954114
180	0x3d10e853	0.03537781
181	0xbe5120e9	-0.2042271
182	0xbddecb58	-0.108786285
183	0xbe531691	-0.20614077
184	0xbd8300d6	-0.06396644
185	0xbe69ec2d	-0.22844
186	0xbe4bcdb8	-0.19902694
187	0xbe4c6df6	-0.19963822
188	0x3e9e903d	0.3096942
189	0x3d30bfea	0.043151774
190	0x3d4ec4f6	0.050480805
191	0xbdf3ea7f	-0.11909961
192	0xbcd1260d	-0.02553084
193	0xbed3d1ea	-0.4137109
194	0x3e3f8cbb	0.18706028
195	0xbe5b4068	-0.21411288
196	0x3e1a41ed	0.15064211
197	0x3d422fa3	0.04740871
198	0x3e74b445	0.23896892
199	0xbe5a8582	-0.21339992
200	0x3e17b4ed	0.14815111
201	0xbf008a4b	-0.5021102
202	0x3dace92a	0.0844291
203	0xbe0ae66e	-0.13564464
204	0x3e427100	0.18988419
205	0xbd301e8b	-0.042997878
206	0xbdd88e0e	-0.1057397
207	0xbd80f9fb	-0.0629768
208	0xbd118dc8	-0.035535604
209	0xbe144114	-0.1447795
210	0xbdc154c4	-0.09439996
211	0x3e81b247	0.25331327
212	0xbe03544d	-0.12825127
213	0x3e3cd5df	0.1844096
214	0x3d50344b	0.05083112
215	0x3eb8345c	0.35977447
216	0x3e5080ca	0.20361629
217	0xbd562f3d	-0.052291144
218	0xbdc93c51	-0.098259576
219	0x3d9889b3	0.07448139
220	0xbdd7350f	-0.10508167
221	0x3ddc1522	0.10746218
222	0xbe3b8763	-0.18313365
223	0xbe7f4512	-0.24928692
224	0x3e71233f	0.23548602
225	0xbd48f4bb	-0.04906152
226	0xbcbeb929	-0.02328165
227	0x3cea9f8a	0.028640527
228	0x3e5f52fc	0.21809
229	0x3da833e6	0.08213024
230	0xbc92f0a9	-0.017937021
231	0xbe8e999e	-0.27851576
232	0x3ea9353b	0.33048424
233	0x3d029ed6	0.03188976
234	0xbde790f3	-0.11306944
235	0xbd80c55e	-0.06287645
236	0xbc27d22c	-0.01024298
237	0x3c8a9e72	0.016921256
238	0x3dca6f9b	0.09884568
239	0xbe8c9912	-0.27460533
240	0x3c31d9c4	0.010855142
241	0xbebda872	-0.37042576
242	0x3e0cf032	0.13763502
243	0x3e236921	0.15958072
244	0xbe72d20d	-0.2371294
245	0xbc913826	-0.017726969
246	0xbe0f5301	-0.13996507
247	0x3cade146	0.021225583
248	0x3d8ba5a4	0.06818703
249	0xbd0649f9	-0.03278539
250	0x3eacfa28	0.33784604
251	0x3dcc3338	0.09970707
252	0xbd9a5645	-0.07535986
253	0x3ddfce5a	0.1092803
254	0x3e3abe6c	0.18236703
255	0x3d88dbd6	0.066825554

fc1.bias f4 [64]
0	0xbd9c853e	-0.076426014
1	0xbcca3e04	-0.024687774
2	0x3e4e75ff	0.201622
3	0x3e8d1be3	0.27560338
4	0x3d9fb250	0.07797682
5	0xbdd3e3fe	-0.103462204
6	0x3e61667d	0.22011752
7	0xbe10ccac	-0.14140576
8	0xbe531ee6	-0.20617256
9	0x3d8c70a1	0.0685742
10	0x3e4882ca	0.19581142
11	0xbddbb40b	-0.107277
12	0x3f1d514d	0.6145218
13	0x3d961887	0.07328897
14	0xbe4d22ec	-0.20032853
15	0x3e3d566f	0.18490003
16	0x3d8e39da	0.06944628
17	0x3ed7981b	0.42108235
18	0xbdf61eb8	-0.12017578
19	0xbd5fe2ee	-0.054659776
20	0x3ea9594d	0.33075944
21	0x3e0946e2	0.13405946
22	0x3f07dbbc	0.53069663
23	0xbe75dece	-0.24010774
24	0x3d8d1b69	0.06889994
25	0x3d1418a6	0.03615632
26	0x3edf634e	0.4363045
27	0xbc68845d	-0.014191714
28	0xbe4b27e9	-0.19839443
29	0xbc1d5584	-0.009602908
30	0xbdc14dfc	-0.094387025
31	0x3e042663	0.12905268
32	0x3eebe810	0.46075487
33	0xbced4adb	-0.028966358
34	0xbe7bc6ea	-0.24587598
35	0x3e5e9949	0.21738161
36	0x3e32993a	0.17441264
37	0xbe87fa08	-0.26557946
38	0x3eab94fe	0.3351211
39	0x3e4b3bb8	0.19847
40	0x3dd8e6a8	0.10590869
41	0x3e832b60	0.2561903
42	0x3ef9a5c0	0.4875927
43	0x3e6b6d6d	0.22990961
44	0x3ed9a922	0.4251185
45	0x3e44c551	0.19215895
46	0x3d03500f	0.03205877
47	0x3e5a135e	0.2129645
48	0x3e2854f5	0.16438659
49	0x3e87e205	0.26539627
50	0x3dbab800	0.091171265
51	0xbe7b9dcc	-0.24571913
52	0x3e1480ff	0.14502333
53	0x3e036fa5	0.12835558
54	0x3e03600a	0.12829605
55	0x3ecaa8ad	0.39581814
56	0x3e062f6a	0.13104025
57	0xbdbb7c74	-0.09154597
58	0xbd2a1560	-0.04152429
59	0xbdd0c2ac	-0.10193381
60	0x3e0154b8	0.12629974
61	0xbd33ed45	-0.04392745
62	0x3e7f1994	0.24912101
63	0xbe4f357b	-0.20235245

fc2.weight f4 [64, 64]
0	0x3d41fd79	0.04736087
1	0xbc798771	-0.015230046
2	0x3d0c0e6c	0.03419344
3	0x3e8e4c5b	0.2779263
4	0x3e208bfe	0.15678403
5	0xbce6efe5	-0.028190563
6	0x3eacf4a3	0.33780393
7	0x3e3cbbf8	0.1843108
8	0xbbfebc54	-0.0077739153
9	0x3dbaebd2	0.091270104
10	0x3e89116b	0.267711
11	0xbdc11266	-0.09427337
12	0x3e9c3965	0.3051254
13	0xbd9a94b6	-0.075478956
14	0x3e548823	0.20755057
15	0x3d739c39	0.059475157
16	0x3dea786d	0.11448751
17	0xbe83b7bc	-0.25726116
18	0xbd241d96	-0.040067278
19	0xbe1a2961	-0.15054847
20	0xbd9d53b5	-0.076819815
21	0x3dd6b898	0.10484427
22	0x3dc27ce4	0.09496477
23	0x3e67f8ad	0.22653456
24	0x3c8f5d40	0.01750052
25	0x3ca45364	0.020059295
26	0x3e0e88a5	0.13919313
27	0x3e07c0c7	0.13257132
28	0xbcc52bfb	-0.024068823
29	0xbd3052e3	-0.043047797
30	0x3df7b196	0.12094419
31	0x3d918c64	0.071068555
32	0x3e51e07f	0.20495795
33	0x3d170cd6	0.036877476
34	0xbe0b9546	-0.13631162
35	0x3e82d832	0.2555557
36	0xbc50a9d5	-0.012735804
37	0x3dcb2dda	0.09920855
38	0x3ea6db49	0.32589176
39	0x3e88f1f8	0.26747108
40	0x3d6e66eb	0.05820362
41	0x3eef9e44	0.46800435
42	0xbd8f7d2a	-0.07006295
43	0x3deea335	0.11652223
44	0x3d47f91f	0.048821565
45	0x3e4501a2	0.19238904
46	0xbc0108d7	-0.007875643
47	0xbe48dc47	-0.19615279
48	0x3e10ea25	0.14151819
49	0x3e18d384	0.14924437
50	0x3d1c8176	0.0382094
51	0x3e02aed3	0.12762003
52	0x3e3b8190	0.18311143
53	0x3d8ef92a	0.06981118
54	0x3d00da42	0.031458147
55	0xbdd3884f	-0.10328733
56	0x3df8fbe2	0.12157418
57	0xbb130a68	-0.0022436623
58	0x3c5132fc	0.012768503
59	0x3d1d0da3	0.038343083
60	0x3c8ac85c	0.016941242
61	0x3dabdb06	0.08391385
62	0x3e95d328	0.29262662
63	0x3cb16b9f	0.021657763
64	0xbd355e78	-0.044279546
65	0xbc81777e	-0.015804049
66	0xbe13a263	-0.14417414
67	0xbcf9aaac	-0.03047689
68	0xbd2c536f	-0.042071756
69	0x3d1a2575	0.037633378
70	0xbde777ac	-0.113021225
71	0xbce7f548	-0.028315201
72	0xbe13c6e2	-0.14431337
73	0xbda42a26	-0.08015852
74	0xbda723e1	-0.0816114
75	0xbda44d48	-0.08022553
76	0x3df4cf04	0.119535476
77	0x3d787b8e	0.060664706
78	0xbd3055d2	-0.043050595
79	0xbd7c79c1	-0.06163955
80	0xbdde1f8e	-0.10845862
81	0xbd0fc452	-0.035099335
82	0x3c502dc0	0.01270622
83	0x3da50772	0.08058061
84	0xbe285c91	-0.16441561
85	0xba982d94	-0.0011610263
86	0xbd28c6fc	-0.04120539
87	0xbe1ec489	-0.1550466
88	0x3d59fd36	0.053219996
89	0xbd9291db	-0.07156726
90	0xbdc8df10	-0.09808171
91	0xbc419b3f	-0.011816799
92	0xbd72342b	-0.059131783
93	0xbe457792	-0.19283894
94	0xbe121b44	-0.14268214
95	0xbda155b6	-0.07877676
96	0x3cf51f42	0.029922131
97	0xbd7c9cf9	-0.06167314
98	0xbe350a76	-0.17679772
99	0x3db12968	0.08650476
100	0xbe1ae03a	-0.15124598
101	0xbd6d9f6c	-0.058013365
102	0x3db939ba	0.090442136
103	0xbcd95690	-0.026530534
104	0xbe167e9d	-0.14696737
105	0x3baef855	0.005339662
106	0x3d8c15e4	0.06840113
107	0x3bd967d2	0.006634691
108	0xbdc6727b	-0.09689804
109	0x3d7b2e94	0.061323717
110	0xbd174efb	-0.036940556
111	0xbd4ae7c7	-0.049537446
112	0x3db3552e	0.08756481
113	0xbcc3fa58	-0.023923084
114	0xbe232d31	-0.15935208
115	0xbda716e9	-0.08158667
116	0x3d493c8f	0.04913002
117	0x3d906938	0.07051319
118	0xbb0848fc	-0.0020795455
119	0x3d20f681	0.039297584
120	0xbb8dfcd1	-0.0043331166
121	0x3ddaf0ed	0.10690484
122	0x3cd92d60	0.026510894
123	0xbe182f47	-0.14861785
124	0xbc8f7650	-0.01751247
125	0xbc88ce41	-0.016699912
126	0xbd04c3e5	-0.032413382
127	0xbdb7f77b	-0.0898275
128	0x3d2d81b2	0.042360015
129	0xbe3c4120	-0.18384218
130	0x3dba884c	0.09108028
131	0x3e87f43d	0.26553527
132	0xbb422d3e	-0.0029629017
133	0xbbe6b32a	-0.007040401
134	0xbd61df1e	-0.05514442
135	0xbde08171	-0.10962189
136	0x3c1d6db5	0.009608676
137	0xbd93cd8c	-0.07216939
138	0x3e4cfc65	0.20018156
139	0xbe5743bc	-0.21021932
140	0x3e19a6ea	0.15005079
141	0xbe4cc2c4	-0.19996172
142	0x3cc0d5c1	0.023539426
143	0x3d99e529	0.07514412
144	0xbd865e06	-0.06560902
145	0xbeaadc9e	-0.33371443
146	0xbd3645e8	-0.04450026
147	0x3d524a24	0.051340237
148	0xbc59c7f6	-0.013292303
149	0x3e2b08d0	0.1670258
150	0xbe8c3d7b	-0.27390656
151	0x3c1696cc	0.009191226
152	0x3e2ceede	0.16887996
153	0x3db3e694	0.08784214
154	0x3e2a5889	0.16635336
155	0xbb86b613	-0.0041110604
156	0xbe5dc1c1	-0.21655942
157	0xbe8c87c3	-0.27447328
158	0xbd8c678f	-0.0685569
159	0x3d90b612	0.07065977
160	0x3e480aba	0.19535342
161	0xbd5e4533	-0.054265212
162	0xbe919e8a	-0.28441268
163	0x3e2c828a	0.16846672
164	0x3ce753c5	0.028238187
165	0xbe6c7604	-0.23091894
166	0x3d104bb1	0.035228435
167	0x3e070394	0.13184959
168	0x3e28fba8	0.16502249
169	0x3e3ac243	0.18238167
170	0xbe15f9d2	-0.1464608
171	0x3e3f4dc0	0.18682003
172	0x3d536756	0.05161222
173	0x3dd7d05c	0.10537788
174	0xbd4aa79b	-0.049476247
175	0xbe99cc42	-0.3003865
176	0x3e1ec071	0.15503098
177	0x3d987c99	0.0744564
178	0x3e57afbb	0.2106313
179	0xbc3a8e39	-0.011386448
180	0x3e0646be	0.13112924
181	0x3d963d00	0.073358536
182	0xbe458e82	-0.19292644
183	0xbe5853bb	-0.2112569
184	0x3e057b39	0.13035287
185	0xbd943750	-0.072371125
186	0xbd5eafc7	-0.054366853
187	0xbd3147c6	-0.04328134
188	0x3cc8071e	0.024417456
189	0xbe398637	-0.18117605
190	0x3d930acd	0.071797945
191	0x3d19bd9b	0.037534337
192	0xbdc575ef	-0.09641635
193	0x3d7c966b	0.061666887
194	0x3d4d891c	0.050179586
195	0x3dbb9d56	0.09160869
196	0xbdfeee12	-0.12447752
197	0x3d2a6096	0.041596018
198	0x3d4bfc6d	0.04980128
199	0xbd87a7a6	-0.06623773
200	0x3d2b33f0	0.04179758
201	0x3e0c3cdb	0.1369509
202	0xbe44d45a	-0.1922163
203	0x3c8ece43	0.017432338
204	0x3e69db4e	0.22837564
205	0x3c52eb92	0.012873547
206	0x3cedbe89	0.029021518
207	0xbc5b37b3	-0.013379979
208	0xbe24b159	-0.16083278
209	0xbe1a1d77	-0.15050302
210	0xbdb320e5	-0.087465085
211	0xba693460	-0.0008896049
212	0xbd25e018	-0.040496916
213	0xbc88b144	-0.01668609
214	0xbd2056f3	-0.03914542
215	0xbd720fd2	-0.05909712
216	0xbe0a8434	-0.13526994
217	0xbb1b6e38	-0.0023716819
218	0x3d82b3ba	0.06381936
219	0x3d99f8f0	0.07518184
220	0xbdf2685f	-0.118363135
221	0xbf1044f0	-0.5635519
222	0xbdc7dd23	-0.09758975
223	0x3c70f9ac	0.014707964
224	0x3e0d121c	0.1377644
225	0xbd93a462	-0.07209088
226	0xbe2277d3	-0.15866022
227	0x3c45eeeb	0.012080888
228	0x3dfcd856	0.1234595
229	0xbe0bc021	-0.1364751
230	0x3dce5345	0.10074476
231	0xbd912905	-0.07087902
232	0x3d872d3a	0.06600423
233	0x3dee3c69	0.11632616
234	0xbe54d45e	-0.20784137
235	0xbd9d81cc	-0.076907724
236	0x3d9dbdcb	0.07702216
237	0x3e44382f	0.19162057
238	0xbdb89e08	-0.09014517
239	0xbf02bced	-0.5106953
240	0x3d43c121	0.047791604
241	0xbe790204	-0.24317175
242	0xbd173507	-0.036915805
243	0xbdf13eb1	-0.117795356
244	0xbda132d7	-0.07871025
245	0x3de98fd1	0.11404384
246	0xbe210c23	-0.15727286
247	0xbe9d3449	-0.30703953
248	0xbe5f01d1	-0.21778037
249	0x3d2c6d19	0.04209623
250	0x3de8637f	0.113471024
251	0xbe0779c5	-0.13230045
252	0x3d1a3724	0.037650242
253	0x3cd55815	0.026042977
254	0xbd1dddaf	-0.038541492
255	0xbc2b7af5	-0.010466327

fc2.bias f4 [64]
0	0x3e8dbadc	0.27681625
1	0xbd2f6dc3	-0.042829286
2	0x3e871819	0.26385573
3	0xbd2d3b87	-0.042293098
4	0x3d7513ad	0.059833217
5	0xbdb444e2	-0.08802201
6	0x3d876ed9	0.066129394
7	0x3d3f4935	0.046700675
8	0x3dde11e2	0.108432546
9	0x3e743969	0.23850025
10	0xbd97a1ac	-0.07403883
11	0x3c6f7557	0.014615378
12	0x3ed8d511	0.42350057
13	0xbc7f1d61	-0.015570969
14	0xbd69c690	-0.05707413
15	0x3e34cd65	0.17656477
16	0x3cd68a0b	0.02618887
17	0x3e14a43a	0.14515772
18	0x3d119b09	0.035548244
19	0xbd1f6c96	-0.038921915
20	0xbdf30c5b	-0.11867591
21	0xbd3aa296	-0.04556521
22	0xbd94f7ef	-0.07273852
23	0x3e139d0b	0.14415376
24	0xbd4c9b2b	-0.049952667
25	0x3eb13c68	0.346164
26	0xbd003d92	-0.031308718
27	0x3b93a068	0.004505206
28	0x3cfe90ce	0.031074908
29	0x3cc7f0cc	0.024406813
30	0x3d3206cb	0.04346351
31	0xbdc5d05b	-0.09658881
32	0x3b7f0de0	0.0038918182
33	0x3e5224dd	0.20521875
34	0x3caf6416	0.02141003
35	0x3e70b89d	0.23507924
36	0x3e38956e	0.18025753
37	0x3dde75b0	0.10862291
38	0xbe44fade	-0.19236323
39	0x3e5ebada	0.21750966
40	0x3e06ae00	0.13152313
41	0x3d290ec7	0.04127386
42	0xbe2cce77	-0.16875635
43	0x3d709e70	0.058744848
44	0xbd8b0cd5	-0.06789557
45	0xbcaf9d4b	-0.021437308
46	0xbdab851c	-0.08374998
47	0x3ca7c19a	0.020478059
48	0x3dfdb4ad	0.12387977
49	0xbdb955cd	-0.09049568
50	0xbc38177d	-0.011236069
51	0x3ca92469	0.020647245
52	0x3d4fa81b	0.050697427
53	0x3bf5d4e5	0.0075021856
54	0xbdbe2e2c	-0.0928615
55	0xbe141b4d	-0.1446354
56	0x3da615f5	0.08109657
57	0xbd4d8a01	-0.05018044
58	0xbdaaf940	-0.08348322
59	0xbd1daf56	-0.03849729
60	0xbe0f17be	-0.139739
61	0xbe3450b3	-0.1760891
62	0x3c834f86	0.01602913
63	0xbbd94c50	-0.0066314116

fc3.weight f4 [2, 64]
0	0xbdccdd89	-0.10003192
1	0xbd4c43ff	-0.049869534
2	0xbe8ca109	-0.2746661
3	0xbe07c015	-0.13256867
4	0x3eb92b97	0.3616607
5	0xbe052b54	-0.1300481
6	0xbc8d1110	-0.01722005
7	0x3d9fedc3	0.07809021
8	0xbdcb1289	-0.09915645
9	0xbe669649	-0.22518267
10	0x3d09299d	0.03348695
11	0xbd20a194	-0.039216593
12	0xbe28a9d6	-0.16471037
13	0x3cade616	0.021227878
14	0xbb719ba4	-0.003686645
15	0xbe7500bb	-0.2392606
16	0xbd082d11	-0.033246104
17	0xbe7ff512	-0.2499583
18	0xbd85cde3	-0.065334104
19	0x3d3b79c6	0.04577043
20	0x3df72189	0.12066943
21	0xbd473aac	-0.04863994
22	0xbb304992	-0.002689932
23	0xbc8336f6	-0.016017418
24	0xbd843381	-0.06455136
25	0xbe708982	-0.23489955
26	0x3c1569d7	0.0091194725
27	0xbd84a36e	-0.06476484
28	0xbcc88469	-0.0244772
29	0x3ef6ca97	0.4820144
30	0x3d78a2cb	0.060702126
31	0x3d74971d	0.059714425
32	0x3cefae03	0.02925778
33	0xbda5f6a4	-0.081036836
34	0x3d063c43	0.032772314
35	0xbeac1a8c	-0.33614004
36	0xbd590e62	-0.052992232
37	0xbe312f1f	-0.17303132
38	0x3dda248e	0.106515035
39	0xbdce2852	-0.10066284
40	0x3d7d06cc	0.06177406
41	0x3d3d57f4	0.046226457
42	0x3cbe9ad2	0.023267183
43	0xbcc1ef56	-0.023673695
44	0x3cf049b6	0.029332023
45	0xbdf1c034	-0.11804238
46	0xbc9b8e7b	-0.018988838
47	0xbd3b8549	-0.045781408
48	0xbc82cf92	-0.015968118
49	0x3cd4b40a	0.025964756
50	0x3df894e5	0.121377744
51	0x3dae20e2	0.08502366
52	0x3cba92a5	0.022775004
53	0xbb9908b7	-0.0046702283
54	0xbd9b09d8	-0.07570237
55	0xbdaf4428	-0.08557922
56	0x389c81c6	7.462832e-05
57	0x3ca1c7d8	0.019748613
58	0xbe120793	-0.14260702
59	0xbd3f3e6d	-0.046690393
60	0x3c879a87	0.016553177
61	0x3d70e54c	0.058812425
62	0xbe77c571	-0.24196412
63	0x3e68a1f6	0.22718033
64	0x3dbabf75	0.09118549
65	0x392501ee	0.00015736345
66	0x3d3eb2ae	0.04655712
67	0x3d2ff9ab	0.04296271
68	0x39a27800	0.00030988455
69	0xbcb3de7d	-0.021956677
70	0x3dc32404	0.09528354
71	0x3d3bfb4b	0.04589395
72	0x3e293b14	0.16526443
73	0xbe79313a	-0.24335185
74	0xbd6ec00a	-0.05828861
75	0x3dfc12d0	0.12308276
76	0x3cc2ef8d	0.023795867
77	0x3dac9128	0.08426124
78	0xbdc29650	-0.09501326
79	0x3e16f3ad	0.14741392
80	0x3df2c1e9	0.11853392
81	0xbc85d309	-0.016335981
82	0x3de5551a	0.111978725
83	0x3d0ea2ea	0.034823336
84	0x3c34413d	0.011001882
85	0x3e1935b5	0.14961894
86	0x3decec6d	0.11568532
87	0x3e11a229	0.14222015
88	0xbcfdf130	-0.030998796
89	0x3d8f802a	0.07006867
90	0xbd3ce46c	-0.046116278
91	0xbcd4debe	-0.025985118
92	0x3e07b322	0.13251927
93	0xbe34068a	-0.1758062
94	0x3e184b5c	0.14872497
95	0x3dfab8db	0.1224229
96	0x3bf803e7	0.0075688246
97	0x3e237a08	0.1596452
98	0x3d6142d3	0.05499537
99	0xbbfbe674	-0.0076873843
100	0x3e22d65b	0.15902083
101	0x3dbc17a4	0.091841966
102	0xbb583c36	-0.0032994873
103	0xbd9f26e8	-0.07771093
104	0x3dd5c04f	0.104370706
105	0x3d48e8aa	0.04905001
106	0x3d155e34	0.036466792
107	0x3dae066b	0.08497318
108	0xbdc4f002	-0.0961609
109	0xbe377b5d	-0.17918153
110	0xbe14f401	-0.14546205
111	0x3d9ffca5	0.0781186
112	0x3de27a25	0.110584535
113	0x3dc7ceb6	0.09756224
114	0x3dc88f2e	0.09792934
115	0x3c85f3fe	0.016351696
116	0x3d9fe168	0.07806665
117	0x3d6be2db	0.057589393
118	0x3c949582	0.018137697
119	0x3d296141	0.041352514
120	0x3a9bfb56	0.0011900465
121	0x3a7bc000	0.00096035004
122	0x3db9c6c3	0.09071114
123	0x3dc011f2	0.09378423
124	0xbc21447c	-0.009842988
125	0x3d571a3d	0.052515257
126	0xbd068c29	-0.03284851
127	0xbd05d959	-0.032677982

fc3.bias f4 [2]
0	0xbcb3211e	-0.021866377
1	0x3e40666f	0.18789075

exp_avg f4 [64, 24]
0	0xb48ab731	-2.5837792e-07
1	0xb36ff754	-5.5871467e-08
2	0xb56931e5	-8.687187e-07
3	0x33221bf4	3.7743987e-08
4	0xb4dfff60	-4.1722797e-07
5	0x34671496	2.152104e-07
6	0xb56931e5	-8.687187e-07
7	0x33221bf4	3.7743987e-08
8	0xb438bde1	-1.7205413e-07
9	0xb1cc69d0	-5.949211e-09
10	0x356aaecf	8.7426173e-07
11	0x346671f4	2.1461875e-07
12	0xb49a8f97	-2.878921e-07
13	0x33978543	7.0557256e-08
14	0x356aaecf	8.7426173e-07
15	0x346671f4	2.1461875e-07
16	0xb48042f5	-2.3890576e-07
17	0x30e7050c	1.6808896e-09
18	0x353c8723	7.023211e-07
19	0x32bd721e	2.205439e-08
20	0xb49921ba	-2.852301e-07
21	0x33329483	4.1578925e-08
22	0x353c8723	7.023211e-07
23	0x32bd721e	2.205439e-08
24	0xb4d68c9e	-3.996292e-07
25	0xb3ec3a41	-1.1000203e-07
26	0x350016d2	4.7716924e-07
27	0xb43f9bc0	-1.7844923e-07
28	0x34e7b1e9	4.315655e-07
29	0x32bd7904	2.2057527e-08
30	0x350016d2	4.7716924e-07
31	0xb43f9bc0	-1.7844923e-07
32	0xb500cd9c	-4.7982917e-07
33	0xb4077163	-1.2614105e-07
34	0xb613b791	-2.2011557e-06
35	0xb41fd553	-1.4885636e-07
36	0x34f11850	4.4907438e-07
37	0x32f4a0a2	2.8478386e-08
38	0xb613b791	-2.2011557e-06
39	0xb41fd553	-1.4885636e-07
40	0xb4dfdc2b	-4.169718e-07
41	0xb4024894	-1.2133597e-07
42	0xb5403ea2	-7.1616716e-07
43	0x3429c04b	1.5809307e-07
44	0x34fb417e	4.6800045e-07
45	0x331e2630	3.6821973e-08
46	0xb5403ea2	-7.1616716e-07
47	0x3429c04b	1.5809307e-07
48	0x3657cfc2	3.2158428e-06
49	0x34cad38f	3.777936e-07
50	0xb6bdeecc	-5.6604385e-06
51	0xb55d26cc	-8.238537e-07
52	0xb6d84c87	-6.4462106e-06
53	0xb5301c74	-6.5606514e-07
54	0xb6bdeecc	-5.6604385e-06
55	0xb55d26cc	-8.238537e-07
56	0x3634794f	2.68927e-06
57	0x3511b4b6	5.427968e-07
58	0xb6e952da	-6.9535863e-06
59	0x35f6655f	1.8357931e-06
60	0xb6bc3ba0	-5.609778e-06
61	0xb59e66ed	-1.1801873e-06
62	0xb6e952da	-6.9535863e-06
63	0x35f6655f	1.8357931e-06
64	0xb6296d59	-2.524661e-06
65	0xb49dbb8c	-2.9379987e-07
66	0xb71b2cb6	-9.24913e-06
67	0x34a44814	3.0599824e-07
68	0xb6c8d549	-5.985294e-06
69	0x360498e8	1.9758536e-06
70	0xb71b2cb6	-9.24913e-06
71	0x34a44814	3.0599824e-07
72	0x36baecdb	5.5708056e-06
73	0x355f27d4	8.313193e-07
74	0xb6817ae5	-3.8588064e-06
75	0xb6650308	-3.4125424e-06
76	0xb6616892	-3.358848e-06
77	0xb635315c	-2.6999833e-06
78	0xb6817ae5	-3.8588064e-06
79	0xb6650308	-3.4125424e-06
80	0x36bc5293	5.6124495e-06
81	0x35645baf	8.5070036e-07
82	0xb737e571	-1.0961071e-05
83	0xb4ffd8f9	-4.765532e-07
84	0xb63752f1	-2.7317403e-06
85	0xb6763f8e	-3.669385e-06
86	0xb737e571	-1.0961071e-05
87	0xb4ffd8f9	-4.765532e-07
88	0xb661e6b1	-3.3661893e-06
89	0xb5ad7414	-1.2923288e-06
90	0xb68ee28b	-4.258303e-06
91	0xb687cfd3	-4.0475074e-06
92	0xb64b3528	-3.0280298e-06
93	0x3659f98a	3.248077e-06
94	0xb68ee28b	-4.258303e-06
95	0xb687cfd3	-4.0475074e-06
96	0x36601ef6	3.3396623e-06
97	0x3481bd72	2.4165962e-07
98	0x36aadd16	5.0921326e-06
99	0xb5db902d	-1.6358732e-06
100	0xb4f896be	-4.630328e-07
101	0xb5400fd7	-7.1548624e-07
102	0x36aadd16	5.0921326e-06
103	0xb5db902d	-1.6358732e-06
104	0x36904f4b	4.3007653e-06
105	0x3477c323	2.3074658e-07
106	0x36cb8412	6.0652465e-06
107	0xb5a167aa	-1.2025605e-06
108	0x3498014c	2.831315e-07
109	0xb5aad8e5	-1.2729112e-06
110	0x36cb8412	6.0652465e-06
111	0xb5a167aa	-1.2025605e-06
112	0x36ad3b7c	5.1627267e-06
113	0x344c2a03	1.9014264e-07
114	0x370afa79	8.283759e-06
115	0xb5d25cda	-1.5673243e-06
116	0xb3580b96	-5.0301956e-08
117	0xb5ded899	-1.6603327e-06
118	0x370afa79	8.283759e-06
119	0xb5d25cda	-1.5673243e-06
120	0xb07f2e77	-9.283449e-10
121	0xb0fdf101	-1.847667e-09
122	0x33592cc2	5.0564957e-08
123	0x3128e9e3	2.4580167e-09
124	0x3261823a	1.3126334e-08
125	0x316bf99e	3.4338892e-09
126	0x33592cc2	5.0564957e-08
127	0x3128e9e3	2.4580167e-09
128	0xb05a5b1b	-7.9437407e-10
129	0xb081addb	-9.435398e-10
130	0x33612524	5.2420674e-08
131	0x32136cac	8.581235e-09
132	0x3260e99a	1.3091631e-08
133	0x3114eeb4	2.1672522e-09
134	0x33612524	5.2420674e-08
135	0x32136cac	8.581235e-09
136	0xb042b167	-7.082889e-10
137	0xaf4cd21e	-1.862834e-10
138	0x335cd018	5.1412e-08
139	0x31ed162f	6.90013e-09
140	0x32600d17	1.3041492e-08
141	0x30699641	8.497843e-10
142	0x335cd018	5.1412e-08
143	0x31ed162f	6.90013e-09
144	0xb5b48d8c	-1.3452241e-06
145	0xb3326e62	-4.1544247e-08
146	0xb652ae9a	-3.139407e-06
147	0xb48c76e5	-2.616354e-07
148	0x357deb8c	9.459261e-07
149	0x34c9371c	3.7479265e-07
150	0xb652ae9a	-3.139407e-06
151	0xb48c76e5	-2.616354e-07
152	0x34bfd2f2	3.5730005e-07
153	0x348e296e	2.6479705e-07
154	0x35c0ae6f	1.4355882e-06
155	0xb4e95a7a	-4.3465462e-07
156	0x362b8f47	2.5564384e-06
157	0xb5900c79	-1.0732466e-06
158	0x35c0ae6f	1.4355882e-06
159	0xb4e95a7a	-4.3465462e-07
160	0xb6646020	-3.40306e-06
161	0xb5347e43	-6.723896e-07
162	0x3553ac26	7.8854134e-07
163	0xb5e0a106	-1.6736165e-06
164	0x329c79be	1.8216152e-08
165	0x36061c50	1.9984036e-06
166	0x3553ac26	7.8854134e-07
167	0xb5e0a106	-1.6736165e-06
168	0x35f37f22	1.8141911e-06
169	0xb37ffedd	-5.960361e-08
170	0xb62cc31e	-2.574357e-06
171	0x34f841ff	4.6241618e-07
172	0xb5b9fff5	-1.3858067e-06
173	0xb4ba66bc	-3.471995e-07
174	0xb62cc31e	-2.574357e-06
175	0x34f841ff	4.6241618e-07
176	0x362ddae7	2.5906427e-06
177	0x32b8da19	2.1519599e-08
178	0x36875c60	4.0340674e-06
179	0x32ad51a8	2.0176984e-08
180	0xb5e4456b	-1.7007527e-06
181	0xb4ef6443	-4.459017e-07
182	0x36875c60	4.0340674e-06
183	0x32ad51a8	2.0176984e-08
184	0x3527d4a5	6.2521787e-07
185	0xb4f37173	-4.5344822e-07
186	0x368cdfb1	4.1983662e-06
187	0x3319c0c1	3.5798397e-08
188	0x34e84f46	4.3271046e-07
189	0x35ddc11a	1.6521983e-06
190	0x368cdfb1	4.1983662e-06
191	0x3319c0c1	3.5798397e-08
192	0x35b9dc88	1.3847757e-06
193	0x34e3ee77	4.245555e-07
194	0xb6791808	-3.711788e-06
195	0xb4a3f51b	-3.0539454e-07
196	0xb4c364c6	-3.6394903e-07
197	0xb3293cb7	-3.94036e-08
198	0xb6791808	-3.711788e-06
199	0xb4a3f51b	-3.0539454e-07
200	0x3627d6cc	2.5009967e-06
201	0x3518bee0	5.690217e-07
202	0x366d1d2a	3.5332728e-06
203	0x3578d1bf	9.269242e-07
204	0x33699d3c	5.4392544e-08
205	0xb51d12dd	-5.851451e-07
206	0x366d1d2a	3.5332728e-06
207	0x3578d1bf	9.269242e-07
208	0xb5a95ea2	-1.2619023e-06
209	0xb4390a43	-1.7233201e-07
210	0xb640bf91	-2.8721736e-06
211	0xb57f3ef0	-9.508649e-07
212	0xb5889ce3	-1.017845e-06
213	0x3609e21f	2.054621e-06
214	0xb640bf91	-2.8721736e-06
215	0xb57f3ef0	-9.508649e-07
216	0x3584593d	9.860738e-07
217	0xb399e2c9	-7.16587e-08
218	0x362c1c5a	2.56465e-06
219	0xb38d6f15	-6.58603e-08
220	0xb50d4bd0	-5.2636915e-07
221	0xb4ae07f9	-3.2415826e-07
222	0x362c1c5a	2.56465e-06
223	0xb38d6f15	-6.58603e-08
224	0x352c8418	6.4267215e-07
225	0xb39c16d6	-7.26847e-08
226	0xb662ee9e	-3.3815518e-06
227	0x33207005	3.7354784e-08
228	0xb511939b	-5.4231504e-07
229	0xb495239e	-2.7779328e-07
230	0xb662ee9e	-3.3815518e-06
231	0x33207005	3.7354784e-08
232	0x35872b76	1.0070933e-06
233	0xb388fe9f	-6.379309e-08
234	0x368012dc	3.816893e-06
235	0x340c9e51	1.3096111e-07
236	0xb5163792	-5.596022e-07
237	0xb473d85c	-2.270985e-07
238	0x368012dc	3.816893e-06
239	0x340c9e51	1.3096111e-07
240	0x3588082f	1.0135171e-06
241	0x3483e5bc	2.4567805e-07
242	0xb70327ad	-7.817446e-06
243	0xb545e497	-7.372086e-07
244	0xb60a83d3	-2.0640334e-06
245	0xb437dda1	-1.7123831e-07
246	0xb70327ad	-7.817446e-06
247	0xb545e497	-7.372086e-07
248	0x35b0531a	1.3137208e-06
249	0x34f508f3	4.5641318e-07
250	0xb6b1cc59	-5.2988003e-06
251	0x356c8a89	8.8118446e-07
252	0xb597684e	-1.1280733e-06
253	0xb58b20e8	-1.0365884e-06
254	0xb6b1cc59	-5.2988003e-06
255	0x356c8a89	8.8118446e-07

exp_avg_sq f4 [64, 24]
0	0x2f3f70cc	1.7411422e-10
1	0x2c8ca09c	3.9968705e-12
2	0x308cc5a3	1.0242512e-09
3	0x2d8634e4	1.5257524e-11
4	0x2fd2e448	3.836098e-10
5	0x2eeccb9c	1.0768206e-10
6	0x308cc5a3	1.0242512e-09
7	0x2d8634e4	1.5257524e-11
8	0x2f136650	1.3405921e-10
9	0x2ca6dbdc	4.742413e-12
10	0x31990c02	4.454251e-09
11	0x2dbbaac8	2.133528e-11
12	0x2fc7cfb2	3.6345466e-10
13	0x2f046e0b	1.2044425e-10
14	0x31990c02	4.454251e-09
15	0x2dbbaac8	2.133528e-11
16	0x2e809c09	5.8484835e-11
17	0x2ca6f114	4.744769e-12
18	0x319a06fb	4.4827835e-09
19	0x2d93f456	1.6820472e-11
20	0x2fc59a41	3.5943695e-10
21	0x2edccc87	1.0040773e-10
22	0x319a06fb	4.4827835e-09
23	0x2d93f456	1.6820472e-11
24	0x2e9ce2d1	7.1343494e-11
25	0x2b8eb23d	1.0139178e-12
26	0x316f7a10	3.4848462e-09
27	0x2d5b120c	1.2452716e-11
28	0x2f380367	1.6735911e-10
29	0x2f08deb6	1.2448251e-10
30	0x316f7a10	3.4848462e-09
31	0x2d5b120c	1.2452716e-11
32	0x2edd6f4a	1.00696854e-10
33	0x2b74fedd	8.703991e-13
34	0x3233d99a	1.0468648e-08
35	0x2d2e104c	9.8943735e-12
36	0x2f24c632	1.4986126e-10
37	0x2f200dc3	1.4556804e-10
38	0x3233d99a	1.0468648e-08
39	0x2d2e104c	9.8943735e-12
40	0x2e8883ce	6.207977e-11
41	0x2c4dccf3	2.9246022e-12
42	0x32174786	8.805619e-09
43	0x2d7f0c38	1.4497785e-11
44	0x2fc42281	3.567671e-10
45	0x2f38dcf6	1.6813204e-10
46	0x32174786	8.805619e-09
47	0x2d7f0c38	1.4497785e-11
48	0x3065996b	8.3527735e-10
49	0x2c772813	3.5123057e-12
50	0x31c2b737	5.6669722e-09
51	0x2e1bc2e6	3.5416024e-11
52	0x2ff5cc74	4.4710513e-10
53	0x303858dc	6.7065087e-10
54	0x31c2b737	5.6669722e-09
55	0x2e1bc2e6	3.5416024e-11
56	0x2ff1972a	4.3945053e-10
57	0x2ca10918	4.576905e-12
58	0x331deb98	3.6768682e-08
59	0x2e6fbd11	5.4510233e-11
60	0x3010334a	5.245978e-10
61	0x30424626	7.0676476e-10
62	0x331deb98	3.6768682e-08
63	0x2e6fbd11	5.4510233e-11
64	0x2fdfa837	4.0682988e-10
65	0x2d4ca103	1.1631809e-11
66	0x331aa0c0	3.600212e-08
67	0x2ea3ada9	7.44323e-11
68	0x3056dac3	7.8163626e-10
69	0x30660810	8.368497e-10
70	0x331aa0c0	3.600212e-08
71	0x2ea3ada9	7.44323e-11
72	0x2f8d49f8	2.5700309e-10
73	0x2bd505be	1.5136154e-12
74	0x308fe278	1.0468986e-09
75	0x2de26044	2.5735976e-11
76	0x2f5f8ebb	2.033244e-10
77	0x2e54370b	4.8252107e-11
78	0x308fe278	1.0468986e-09
79	0x2de26044	2.5735976e-11
80	0x2fad2b34	3.1499214e-10
81	0x2be7b9a3	1.6465062e-12
82	0x30bd841e	1.378911e-09
83	0x2e06146d	3.0486214e-11
84	0x2f6f5ae3	2.1769213e-10
85	0x2e491442	4.57201e-11
86	0x30bd841e	1.378911e-09
87	0x2e06146d	3.0486214e-11
88	0x2f551366	1.9379129e-10
89	0x2da226e1	1.8434533e-11
90	0x30a4bae3	1.1985687e-09
91	0x2e1f059b	3.6157393e-11
92	0x2f17c87e	1.3804599e-10
93	0x2f4334a7	1.7753853e-10
94	0x30a4bae3	1.1985687e-09
95	0x2e1f059b	3.6157393e-11
96	0x30700ec6	8.7332486e-10
97	0x2c25c75e	2.3558581e-12
98	0x311201b8	2.1246773e-09
99	0x2f10b2ca	1.3160242e-10
100	0x2f21665c	1.467923e-10
101	0x305f8de0	8.1328544e-10
102	0x311201b8	2.1246773e-09
103	0x2f10b2ca	1.3160242e-10
104	0x2fad654a	3.1540487e-10
105	0x2b6cb495	8.409465e-13
106	0x3337bd4c	4.2780172e-08
107	0x2eda75ca	9.934416e-11
108	0x2f33e68f	1.6361866e-10
109	0x302e37d0	6.3380146e-10
110	0x3337bd4c	4.2780172e-08
111	0x2eda75ca	9.934416e-11
112	0x2f3521c1	1.6473846e-10
113	0x2c8e8dbe	4.0516193e-12
114	0x32f71fa4	2.8768973e-08
115	0x2dd1824c	2.3818413e-11
116	0x2ed7dd36	9.816363e-11
117	0x301208ef	5.3127186e-10
118	0x32f71fa4	2.8768973e-08
119	0x2dd1824c	2.3818413e-11
120	0x2cbc670c	5.354722e-12
121	0x2a39ba7a	1.6495998e-13
122	0x2eda5f7b	9.930453e-11
123	0x2cc94ac8	5.721066e-12
124	0x2d768a7d	1.4014232e-11
125	0x2c051f7d	1.8917916e-12
126	0x2eda5f7b	9.930453e-11
127	0x2cc94ac8	5.721066e-12
128	0x2c90df79	4.1175366e-12
129	0x2ae32af2	4.03531e-13
130	0x2e5ed148	5.0662835e-11
131	0x2cd7782b	6.124009e-12
132	0x2d792c5e	1.4163863e-11
133	0x2c17fcbe	2.159869e-12
134	0x2e5ed148	5.0662835e-11
135	0x2cd7782b	6.124009e-12
136	0x2d0d408d	8.029255e-12
137	0x2b52245f	7.465746e-13
138	0x2ee855d7	1.0565387e-10
139	0x2d016ddf	7.357197e-12
140	0x2d793eea	1.4167981e-11
141	0x2c05082f	1.890498e-12
142	0x2ee855d7	1.0565387e-10
143	0x2d016ddf	7.357197e-12
144	0x3076af39	8.9743285e-10
145	0x2c41dc91	2.7549389e-12
146	0x30ad1b8b	1.2595235e-09
147	0x2e3c76c6	4.2851743e-11
148	0x30384147	6.7031575e-10
149	0x2f1a2e2a	1.4022619e-10
150	0x30ad1b8b	1.2595235e-09
151	0x2e3c76c6	4.2851743e-11
152	0x30acb47b	1.2565943e-09
153	0x2d46e39f	1.1305539e-11
154	0x30ee263e	1.7327648e-09
155	0x2e4a7a50	4.6038118e-11
156	0x306f1dce	8.699005e-10
157	0x2f9cc71d	2.8517713e-10
158	0x30ee263e	1.7327648e-09
159	0x2e4a7a50	4.6038118e-11
160	0x3004e094	4.8340465e-10
161	0x2ec7dec6	9.089045e-11
162	0x320ba357	8.128004e-09
163	0x2f5b9fca	1.9974702e-10
164	0x3091aabe	1.0598666e-09
165	0x306c0f4a	8.5878027e-10
166	0x320ba357	8.128004e-09
167	0x2f5b9fca	1.9974702e-10
168	0x2eda082e	9.914945e-11
169	0x2ad8422e	3.841523e-13
170	0x313f82ab	2.7868434e-09
171	0x2da7b129	1.9064377e-11
172	0x2ec020c2	8.736968e-11
173	0x2e857e68	6.070594e-11
174	0x313f82ab	2.7868434e-09
175	0x2da7b129	1.9064377e-11
176	0x2f51c945	1.9079945e-10
177	0x2b90b23e	1.0281288e-12
178	0x3159b290	3.1679157e-09
179	0x2d310315	1.00619695e-11
180	0x2ed506df	9.687339e-11
181	0x2e6aa24c	5.334959e-11
182	0x3159b290	3.1679157e-09
183	0x2d310315	1.00619695e-11
184	0x2ec5e971	8.99999e-11
185	0x2c57091b	3.0558392e-12
186	0x316240c2	3.292414e-09
187	0x2d6b9c4b	1.33929074e-11
188	0x2ef5500b	1.11555286e-10
189	0x2e4f91e9	4.7195945e-11
190	0x316240c2	3.292414e-09
191	0x2d6b9c4b	1.33929074e-11
192	0x2f8b6d41	2.5361582e-10
193	0x2af40d55	4.3352358e-13
194	0x3345afba	4.602746e-08
195	0x2dd7da93	2.4539737e-11
196	0x3095ab23	1.0889817e-09
197	0x2e4592e5	4.4923083e-11
198	0x3345afba	4.602746e-08
199	0x2dd7da93	2.4539737e-11
200	0x2e0e816b	3.2402008e-11
201	0x2b7a21ce	8.8864755e-13
202	0x31989899	4.4411306e-09
203	0x2d9145b6	1.651555e-11
204	0x30a77418	1.2183845e-09
205	0x2e40341b	4.3702025e-11
206	0x31989899	4.4411306e-09
207	0x2d9145b6	1.651555e-11
208	0x2e6f1875	5.436403e-11
209	0x2c2d32a8	2.4612899e-12
210	0x314dd240	2.995094e-09
211	0x2d8b5a98	1.5842702e-11
212	0x30c7a015	1.4524654e-09
213	0x2e94971a	6.757102e-11
214	0x314dd240	2.995094e-09
215	0x2d8b5a98	1.5842702e-11
216	0x2f235dda	1.4858106e-10
217	0x2cca3965	5.7475574e-12
218	0x3224fd1f	9.6036095e-09
219	0x2d7af450	1.4265103e-11
220	0x2e47f19c	4.5461954e-11
221	0x2ebdb3fc	8.6266966e-11
222	0x3224fd1f	9.6036095e-09
223	0x2d7af450	1.4265103e-11
224	0x2ea47840	7.479217e-11
225	0x2c9941fd	4.3558477e-12
226	0x31c28fc5	5.662488e-09
227	0x2e03546a	2.9860926e-11
228	0x2e38f07c	4.205035e-11
229	0x2ecc25b8	9.283546e-11
230	0x31c28fc5	5.662488e-09
231	0x2e03546a	2.9860926e-11
232	0x2ea84145	7.65135e-11
233	0x2d31ff77	1.011801e-11
234	0x31d78181	6.2720464e-09
235	0x2e0d1e0a	3.208637e-11
236	0x2e47e099	4.5446844e-11
237	0x2f269223	1.514953e-10
238	0x31d78181	6.2720464e-09
239	0x2e0d1e0a	3.208637e-11
240	0x2fb91013	3.3662725e-10
241	0x2c04a3e4	1.8849306e-12
242	0x314695f9	2.8898042e-09
243	0x2e13160a	3.3443505e-11
244	0x305230bf	7.646683e-10
245	0x2e9a59f5	7.019089e-11
246	0x314695f9	2.8898042e-09
247	0x2e13160a	3.3443505e-11
248	0x2fc618a5	3.60335e-10
249	0x2c4eab0d	2.9369313e-12
250	0x31024965	1.895921e-09
251	0x2e2f8cea	3.991555e-11
252	0x30607108	8.165135e-10
253	0x2e99ee8b	7.000008e-11
254	0x31024965	1.895921e-09
255	0x2e2f8cea	3.991555e-11

exp_avg f4 [64]
0	0x33677bbc	5.3896414e-08
1	0x327ff89c	1.4899481e-08
2	0x34a3aaa6	3.048528e-07
3	0x351ff8c1	5.95941e-07
4	0xb4bab1d0	-3.4774575e-07
5	0x30eb8c76	1.7138422e-09
6	0x34eb551e	4.3834092e-07
7	0x337d0abe	5.8915923e-08
8	0x348d6db2	2.634311e-07
9	0xb3b790c8	-8.547937e-08
10	0x34bec5be	3.5534134e-07
11	0xb52b55e8	-6.3827474e-07
12	0x357f416d	9.509011e-07
13	0xb460e09b	-2.0943337e-07
14	0xb462a0fd	-2.1106457e-07
15	0x33162b79	3.4964135e-08
16	0x3441359f	1.7994033e-07
17	0xb5b6c3d7	-1.3617054e-06
18	0xb52df58a	-6.480483e-07
19	0xb4a2a2e9	-3.0293384e-07
20	0xb5176699	-5.640118e-07
21	0x34b501ca	3.371518e-07
22	0xb48ab0ee	-2.5833236e-07
23	0x34c33bef	3.6365188e-07
24	0x34a8fe91	3.147766e-07
25	0xb3c2e643	-9.075713e-08
26	0x35bdd65f	1.4143988e-06
27	0xb3fbc22a	-1.17234165e-07
28	0xb3b5f7ed	-8.473567e-08
29	0x353693b2	6.801521e-07
30	0x339efcbe	7.403422e-08
31	0x355f2c5b	8.313852e-07
32	0x3577d43e	9.2323523e-07
33	0xb44f6eaa	-1.9318637e-07
34	0x330d1225	3.2845623e-08
35	0x35c62efe	1.4765826e-06
36	0xb4ffa21f	-4.761541e-07
37	0xb3bec41d	-8.883237e-08
38	0x35ab7db9	1.2777083e-06
39	0x3539cc8d	6.921553e-07
40	0x3402aa96	1.2169252e-07
41	0x35cdcbbe	1.5332987e-06
42	0xb3ce2e0f	-9.6010005e-08
43	0x3485e24a	2.4937827e-07
44	0xb21c7beb	-9.108571e-09
45	0x343663d8	1.6986394e-07
46	0x3412980d	1.3652625e-07
47	0xb5f8ca25	-1.8536272e-06
48	0x3481736c	2.4112103e-07
49	0x34b890c6	3.4378007e-07
50	0xb4f55ed7	-4.570381e-07
51	0xb39c8d32	-7.2899994e-08
52	0x32c46781	2.2864471e-08
53	0xb49ccd66	-2.920671e-07
54	0xb419b5c0	-1.4315356e-07
55	0xb3ad441f	-8.0683314e-08
56	0xb51e831e	-5.905039e-07
57	0xb2038431	-7.65526e-09
58	0x35419e5e	7.212856e-07
59	0x341d4636	1.4647307e-07
60	0x3472c858	2.2610891e-07
61	0xb51b8e64	-5.7949205e-07
62	0x34b45f0f	3.3596777e-07
63	0xb5341699	-6.708811e-07

exp_avg_sq f4 [64]
0	0x2cc398bb	5.55919e-12
1	0x2d123c8f	8.312586e-12
2	0x2e8daf6c	6.443099e-11
3	0x2c4d5888	2.9181397e-12
4	0x2e5571ae	4.853156e-11
5	0x2a0f78ce	1.2742864e-13
6	0x2d528d9e	1.1968563e-11
7	0x2c956015	4.245502e-12
8	0x2c9963d3	4.3596043e-12
9	0x2cb3cc0b	5.1101393e-12
10	0x2cdeb561	6.3297566e-12
11	0x2cb10d8a	5.0321457e-12
12	0x2d0fe460	8.179318e-12
13	0x2e069fb9	3.0609935e-11
14	0x2dd3f67f	2.4097389e-11
15	0x2dd414e8	2.4110894e-11
16	0x2d1fcb8c	9.0833e-12
17	0x2cd729b0	6.1152958e-12
18	0x2c5e8bb9	3.162566e-12
19	0x2cf0dc02	6.845636e-12
20	0x2bb7c7e3	1.3058412e-12
21	0x2ecc8deb	9.302056e-11
22	0x2d40410e	1.09283815e-11
23	0x2c35016a	2.5722432e-12
24	0x2ba9ad0e	1.2056205e-12
25	0x2dab6535	1.9485394e-11
26	0x2d61c48f	1.2833414e-11
27	0x2c25bf54	2.3554119e-12
28	0x2bba956a	1.3257566e-12
29	0x2c9318c8	4.1807426e-12
30	0x2d5f3653	1.2688145e-11
31	0x2c9bad8a	4.4246317e-12
32	0x2d090044	7.787607e-12
33	0x2d0ed2f4	8.1186065e-12
34	0x2b6c98a8	8.4055896e-13
35	0x2d73b49d	1.3853055e-11
36	0x2cf3c31a	6.928136e-12
37	0x2c111f92	2.0623264e-12
38	0x2daf6397	1.9939423e-11
39	0x2c7a7ae6	3.559536e-12
40	0x2e62f6da	5.16057e-11
41	0x2d7c00a0	1.432468e-11
42	0x2c4956fe	2.8612108e-12
43	0x2c5dc2d5	3.1514142e-12
44	0x2d843211	1.5028897e-11
45	0x2dd00332	2.3648281e-11
46	0x2daf915e	1.9959753e-11
47	0x2d290c85	9.609318e-12
48	0x2de0a8e6	2.5540858e-11
49	0x2cd4ed12	6.0517225e-12
50	0x2ef914a9	1.1326879e-10
51	0x2defed59	2.7276558e-11
52	0x2d88d119	1.5554268e-11
53	0x2d9dcbc8	1.793933e-11
54	0x2db93d5e	2.1059317e-11
55	0x2cc714cd	5.6582295e-12
56	0x2d78a05d	1.4132776e-11
57	0x2ac9a643	3.582014e-13
58	0x2ea2b1ac	7.398468e-11
59	0x2e20dfbe	3.657851e-11
60	0x2d818638	1.4725207e-11
61	0x2c150d32	2.1181498e-12
62	0x2c8ee195	4.0609274e-12
63	0x2b9c34e5	1.1099148e-12

exp_avg f4 [64, 64]
0	0x34b416c4	3.3544177e-07
1	0x30c1da73	1.4104685e-09
2	0xb3287e03	-3.9230155e-08
3	0xb40203d5	-1.2108588e-07
4	0x358d739a	1.0538963e-06
5	0xb2033aba	-7.6385565e-09
6	0x3630c039	2.6337932e-06
7	0x34d5fa5b	3.98565e-07
8	0xb55b3f4c	-8.1675967e-07
9	0x32fe7107	2.962089e-08
10	0x35b99104	1.3825779e-06
11	0x3277f520	1.4433027e-08
12	0x36141162	2.2063837e-06
13	0xb4befbe2	-3.5573527e-07
14	0x35140a49	5.5149263e-07
15	0xb478f64e	-2.3186405e-07
16	0x3513e5a2	5.5095927e-07
17	0x35d33a1e	1.5737639e-06
18	0x346bda1e	2.1965431e-07
19	0x3491eb46	2.717954e-07
20	0x36025c79	1.9425336e-06
21	0x34779431	2.305758e-07
22	0x36428adc	2.898908e-06
23	0xb4176e32	-1.410306e-07
24	0xb4ea240e	-4.361213e-07
25	0xb5d5640d	-1.5898855e-06
26	0x356b7db8	8.7727267e-07
27	0xb3e96a62	-1.0869259e-07
28	0x34c3604a	3.639164e-07
29	0xb5c0f1ee	-1.4375526e-06
30	0xb423f193	-1.5268442e-07
31	0x35e08007	1.6726561e-06
32	0x35c5c406	1.4734694e-06
33	0x355f6f36	8.3235807e-07
34	0x342d81a3	1.6159042e-07
35	0x35fc9175	1.8817797e-06
36	0x3565822b	8.549857e-07
37	0xb413dbc1	-1.3770388e-07
38	0x3614924e	2.213888e-06
39	0x348ad44e	2.5858975e-07
40	0x34db14fc	4.0807197e-07
41	0x3613f18c	2.2045306e-06
42	0x356197c1	8.403986e-07
43	0x34d3a3f8	3.9421116e-07
44	0x360b365c	2.0744255e-06
45	0x36208eb0	2.3924913e-06
46	0xb52f93f1	-6.5407863e-07
47	0x36165bf3	2.2405263e-06
48	0xb48f021f	-2.663737e-07
49	0x356a90d6	8.7382557e-07
50	0xb563876f	-8.476117e-07
51	0xb4a83021	-3.1327457e-07
52	0xb581bbf5	-9.665952e-07
53	0xb42504da	-1.5368587e-07
54	0xb38a1d59	-6.431464e-08
55	0x35a8c0d5	1.2573097e-06
56	0x34983c70	2.835618e-07
57	0xb58536ad	-9.925185e-07
58	0x338341c5	6.112126e-08
59	0xb4230191	-1.5181128e-07
60	0xb536cc74	-6.80978e-07
61	0xb522a583	-6.0590554e-07
62	0x35017760	4.822996e-07
63	0xb517a889	-5.6497134e-07
64	0x29c517f1	8.7527106e-14
65	0x2aab3c10	3.041738e-13
66	0x2a03da64	1.1710907e-13
67	0x2957079c	4.774619e-14
68	0x28e864b6	2.580085e-14
69	0x28d9fc3d	2.420123e-14
70	0x28b43394	2.0006383e-14
71	0x2a42392e	1.72505e-13
72	0x2af2bfda	4.312096e-13
73	0x2a0f6717	1.2736718e-13
74	0x293cdf86	4.193826e-14
75	0x2a401102	1.7058926e-13
76	0xa99e9c2a	-7.0437e-14
77	0x2ac44cfd	3.4870015e-13
78	0x28ad7b73	1.9260396e-14
79	0x2ad23723	3.7341752e-13
80	0x2a2c9821	1.5329449e-13
81	0x29d19335	9.307001e-14
82	0x2b2ed6fe	6.211558e-13
83	0x2b1f0c91	5.6505587e-13
84	0x2823643f	9.070055e-15
85	0x2a16a10c	1.337855e-13
86	0xa9ac270e	-7.645109e-14
87	0x2a006f2b	1.1407253e-13
88	0x29fc5eb2	1.1207475e-13
89	0x2b0f8b3f	5.099705e-13
90	0x2aca57aa	3.5943237e-13
91	0x2ab63998	3.2369658e-13
92	0x2a139cde	1.3110647e-13
93	0x28f1dcb7	2.6852095e-14
94	0x298829e1	6.046878e-14
95	0x2aab4439	3.042304e-13
96	0xa9e85346	-1.0317315e-13
97	0xa8604b78	-1.24508626e-14
98	0x289068c4	1.6032646e-14
99	0xa97a8340	-5.5624992e-14
100	0x2a86d068	2.3947793e-13
101	0x2a4f46f6	1.8409913e-13
102	0x28298bea	9.411724e-15
103	0xa8b2392b	-1.9786762e-14
104	0x296607d5	5.1077052e-14
105	0x2a48df7c	1.7841105e-13
106	0x29f331ed	1.08000285e-13
107	0xa8a475ba	-1.8258713e-14
108	0x2a085dac	1.2111725e-13
109	0x27888613	3.7892946e-15
110	0x2a004dbc	1.1395653e-13
111	0x2a2d7225	1.5405089e-13
112	0xa8a14b86	-1.7907344e-14
113	0x29260076	3.6859804e-14
114	0x29786eff	5.5163336e-14
115	0x2a0c39f6	1.2454607e-13
116	0x2a9f3ecb	2.8287645e-13
117	0xa952c9e0	-4.6804466e-14
118	0x2accd396	3.6384497e-13
119	0x2a05b060	1.1873965e-13
120	0x29948ec2	6.597285e-14
121	0xa9771d68	-5.4870523e-14
122	0x2a29921c	1.5060907e-13
123	0x2abb919f	3.3318918e-13
124	0x2a3c8a0e	1.6745652e-13
125	0x2993df9c	6.5669014e-14
126	0x292af7f3	3.7962645e-14
127	0x2aa23718	2.881521e-13
128	0x352419b5	6.113217e-07
129	0x34604993	2.0888392e-07
130	0xb63f7be2	-2.8533327e-06
131	0xb2e1a495	-2.626829e-08
132	0x35199146	5.720834e-07
133	0xb21ba9fa	-9.060836e-09
134	0x36a3d30d	4.882348e-06
135	0x358425b5	9.845741e-07
136	0xb51002cb	-5.3648245e-07
137	0x3447d696	1.8611385e-07
138	0xb5c99d1e	-1.5021394e-06
139	0x35bbbd98	1.3987765e-06
140	0x368d2691	4.206617e-06
141	0x3444800d	1.8300507e-07
142	0xb5099b63	-5.1262595e-07
143	0xb6932498	-4.3852015e-06
144	0xb3b578fa	-8.450475e-08
145	0xb65ccf7a	-3.2903322e-06
146	0x3507dac3	5.060976e-07
147	0x356649e8	8.5789225e-07
148	0x36269ab8	2.4825986e-06
149	0xb494a5fb	-2.7687915e-07
150	0x36656d99	3.4187453e-06
151	0x353adbde	6.961035e-07
152	0xb630fda0	-2.6373673e-06
153	0xb6b9f085	-5.54143e-06
154	0xb6d47e53	-6.3327984e-06
155	0xb44140a7	-1.7998046e-07
156	0x359522df	1.1111514e-06
157	0xb620c52b	-2.3956625e-06
158	0x35023879	4.851095e-07
159	0x361bff4c	2.3245402e-06
160	0x3695d12b	4.4648964e-06
161	0x357cd202	9.4182917e-07
162	0x35098c3b	5.124054e-07
163	0x36a5380c	4.923908e-06
164	0xb6a42dce	-4.8929132e-06
165	0x34040e5a	1.2298679e-07
166	0x3621ec82	2.4128535e-06
167	0x36168b03	2.2432657e-06
168	0xb5cce9a3	-1.5267182e-06
169	0x36543370	3.1620402e-06
170	0x3528ce35	6.288495e-07
171	0xb4097461	-1.2801458e-07
172	0x34035c11	1.223382e-07
173	0x369b1a0c	4.622392e-06
174	0xb6058382	-1.9895092e-06
175	0x3537f686	6.853155e-07
176	0xb63a015d	-2.7716953e-06
177	0x359a64ed	1.1503267e-06
178	0xb63eca3a	-2.8429918e-06
179	0x3596c240	1.1232405e-06
180	0xb66883ab	-3.4647335e-06
181	0x359cfef6	1.1697109e-06
182	0x35904e97	1.0751709e-06
183	0x365fe58f	3.336321e-06
184	0xb664d1ae	-3.4096697e-06
185	0x34bc0bc2	3.5026284e-07
186	0x35e000b4	1.6689505e-06
187	0xb361a187	-5.2533803e-08
188	0x33fdd30d	1.18196205e-07
189	0xb5843385	-9.84976e-07
190	0x3581a77d	9.659994e-07
191	0x330178aa	3.0144896e-08
192	0x328b5a2b	1.6222733e-08
193	0xaf2a4f34	-1.5489549e-10
194	0x341b74ed	1.4478037e-07
195	0x332fb48a	4.0909562e-08
196	0x3218e2a6	8.899098e-09
197	0xa9761310	-5.4639507e-14
198	0x345ca827	2.055027e-07
199	0x31e484b9	6.650762e-09
200	0x313a767c	2.7133913e-09
201	0x2dcb9593	2.3144852e-11
202	0x3421299f	1.5009435e-07
203	0x33bf5268	8.90912e-08
204	0x342c7607	1.6061686e-07
205	0xb2e8588b	-2.704862e-08
206	0x32ae48e0	2.0289406e-08
207	0x33397c17	4.3186528e-08
208	0x3383146e	6.103879e-08
209	0x33880b7d	6.335083e-08
210	0xb31dd316	-3.6746393e-08
211	0x334cc2c8	4.7674604e-08
212	0x34313cd9	1.6506546e-07
213	0x33bb73f4	8.728958e-08
214	0x343f2431	1.7801428e-07
215	0xaf8a8f33	-2.5203803e-10
216	0x32a3aa25	1.905307e-08
217	0x33434de2	4.547281e-08
218	0x347d6c19	2.3601787e-07
219	0x329002f8	1.6765156e-08
220	0x33191baf	3.5648267e-08
221	0xb0049846	-4.8237714e-10
222	0x2cb91f13	5.261466e-12
223	0x344fa7d7	1.9339437e-07
224	0x342da7ef	1.6172974e-07
225	0x32cb2195	2.3647582e-08
226	0x2cdc9506	6.269321e-12
227	0x33eb3eec	1.0954486e-07
228	0x339e17ca	7.3617755e-08
229	0xb0ed04bc	-1.7245365e-09
230	0x3422a1c2	1.5146273e-07
231	0x32acd3c7	2.011974e-08
232	0x33f3c6a7	1.1351704e-07
233	0x345859d6	2.014925e-07
234	0x3411549a	1.3534955e-07
235	0x331ea8ab	3.6940644e-08
236	0x3457d100	2.0099469e-07
237	0x34532845	1.9665556e-07
238	0xae631647	-5.163361e-11
239	0x33a751a4	7.791394e-08
240	0x33bc0a22	8.756275e-08
241	0x33dac5f9	1.0187427e-07
242	0x336bcf7a	5.49039e-08
243	0x32260259	9.6630055e-09
244	0x33921aa7	6.803503e-08
245	0x31fc2b09	7.339058e-09
246	0xb2a940ec	-1.9703712e-08
247	0x341cc1de	1.459916e-07
248	0x339bfbbb	7.2635395e-08
249	0x2b9b3b0d	1.1029802e-12
250	0x337676ac	5.738427e-08
251	0xb23dd9d6	-1.1050778e-08
252	0x31177d5c	2.204465e-09
253	0x3294976c	1.7298326e-08
254	0x32462f58	1.1535882e-08
255	0x2c374a11	2.604698e-12
